…
vocab size = 32006
[2019-08-22 10:00:58,995 INFO]  * tgt vocab size = 32006
[2019-08-22 10:00:58,996 INFO] Building model...
[2019-08-22 10:00:59,234 INFO] building with extended encoder version:xlnet
[2019-08-22 10:00:59,235 INFO] loading weights file /home/LAB/zhangzy/ShareModels/xlnet/base-cased/pytorch_model.bin
[2019-08-22 10:01:02,233 INFO] initing embedding with extended encoder version:xlnet
[2019-08-22 10:01:02,234 INFO] decoder type is : transformer (transformer,0)
[2019-08-22 10:01:13,800 INFO] NMTModel(
  (encoder): OnmtXLNetEncoder(
    (encoder): XLNetModel(
      (word_embedding): Embedding(32006, 768, padding_idx=1)
      (layer): ModuleList(
        (0): XLNetLayer(
          (rel_attn): XLNetRelativeAttention(
            (layer_norm): XLNetLayerNorm()
            (dropout): Dropout(p=0.1)
          )
          (ff): XLNetFeedForward(
            (layer_norm): XLNetLayerNorm()
            (layer_1): Linear(in_features=768, out_features=3072, bias=True)
            (layer_2): Linear(in_features=3072, out_features=768, bias=True)
            (dropout): Dropout(p=0.1)
          )
          (dropout): Dropout(p=0.1)
        )
        (1): XLNetLayer(
          (rel_attn): XLNetRelativeAttention(
            (layer_norm): XLNetLayerNorm()
            (dropout): Dropout(p=0.1)
          )
          (ff): XLNetFeedForward(
            (layer_norm): XLNetLayerNorm()
            (layer_1): Linear(in_features=768, out_features=3072, bias=True)
            (layer_2): Linear(in_features=3072, out_features=768, bias=True)
            (dropout): Dropout(p=0.1)
          )
          (dropout): Dropout(p=0.1)
        )
        (2): XLNetLayer(
          (rel_attn): XLNetRelativeAttention(
            (layer_norm): XLNetLayerNorm()
            (dropout): Dropout(p=0.1)
          )
          (ff): XLNetFeedForward(
            (layer_norm): XLNetLayerNorm()
            (layer_1): Linear(in_features=768, out_features=3072, bias=True)
            (layer_2): Linear(in_features=3072, out_features=768, bias=True)
            (dropout): Dropout(p=0.1)
          )
          (dropout): Dropout(p=0.1)
        )
        (3): XLNetLayer(
          (rel_attn): XLNetRelativeAttention(
            (layer_norm): XLNetLayerNorm()
            (dropout): Dropout(p=0.1)
          )
          (ff): XLNetFeedForward(
            (layer_norm): XLNetLayerNorm()
            (layer_1): Linear(in_features=768, out_features=3072, bias=True)
            (layer_2): Linear(in_features=3072, out_features=768, bias=True)
            (dropout): Dropout(p=0.1)
          )
          (dropout): Dropout(p=0.1)
        )
        (4): XLNetLayer(
          (rel_attn): XLNetRelativeAttention(
            (layer_norm): XLNetLayerNorm()
            (dropout): Dropout(p=0.1)
          )
          (ff): XLNetFeedForward(
            (layer_norm): XLNetLayerNorm()
            (layer_1): Linear(in_features=768, out_features=3072, bias=True)
            (layer_2): Linear(in_features=3072, out_features=768, bias=True)
            (dropout): Dropout(p=0.1)
          )
          (dropout): Dropout(p=0.1)
        )
        (5): XLNetLayer(
          (rel_attn): XLNetRelativeAttention(
            (layer_norm): XLNetLayerNorm()
            (dropout): Dropout(p=0.1)
          )
          (ff): XLNetFeedForward(
            (layer_norm): XLNetLayerNorm()
            (layer_1): Linear(in_features=768, out_features=3072, bias=True)
            (layer_2): Linear(in_features=3072, out_features=768, bias=True)
            (dropout): Dropout(p=0.1)
          )
          (dropout): Dropout(p=0.1)
        )
        (6): XLNetLayer(
          (rel_attn): XLNetRelativeAttention(
            (layer_norm): XLNetLayerNorm()
            (dropout): Dropout(p=0.1)
          )
          (ff): XLNetFeedForward(
            (layer_norm): XLNetLayerNorm()
            (layer_1): Linear(in_features=768, out_features=3072, bias=True)
            (layer_2): Linear(in_features=3072, out_features=768, bias=True)
            (dropout): Dropout(p=0.1)
          )
          (dropout): Dropout(p=0.1)
        )
        (7): XLNetLayer(
          (rel_attn): XLNetRelativeAttention(
            (layer_norm): XLNetLayerNorm()
            (dropout): Dropout(p=0.1)
          )
          (ff): XLNetFeedForward(
            (layer_norm): XLNetLayerNorm()
            (layer_1): Linear(in_features=768, out_features=3072, bias=True)
            (layer_2): Linear(in_features=3072, out_features=768, bias=True)
            (dropout): Dropout(p=0.1)
          )
          (dropout): Dropout(p=0.1)
        )
        (8): XLNetLayer(
          (rel_attn): XLNetRelativeAttention(
            (layer_norm): XLNetLayerNorm()
            (dropout): Dropout(p=0.1)
          )
          (ff): XLNetFeedForward(
            (layer_norm): XLNetLayerNorm()
            (layer_1): Linear(in_features=768, out_features=3072, bias=True)
            (layer_2): Linear(in_features=3072, out_features=768, bias=True)
            (dropout): Dropout(p=0.1)
          )
          (dropout): Dropout(p=0.1)
        )
        (9): XLNetLayer(
          (rel_attn): XLNetRelativeAttention(
            (layer_norm): XLNetLayerNorm()
            (dropout): Dropout(p=0.1)
          )
          (ff): XLNetFeedForward(
            (layer_norm): XLNetLayerNorm()
            (layer_1): Linear(in_features=768, out_features=3072, bias=True)
            (layer_2): Linear(in_features=3072, out_features=768, bias=True)
            (dropout): Dropout(p=0.1)
          )
          (dropout): Dropout(p=0.1)
        )
        (10): XLNetLayer(
          (rel_attn): XLNetRelativeAttention(
            (layer_norm): XLNetLayerNorm()
            (dropout): Dropout(p=0.1)
          )
          (ff): XLNetFeedForward(
            (layer_norm): XLNetLayerNorm()
            (layer_1): Linear(in_features=768, out_features=3072, bias=True)
            (layer_2): Linear(in_features=3072, out_features=768, bias=True)
            (dropout): Dropout(p=0.1)
          )
          (dropout): Dropout(p=0.1)
        )
        (11): XLNetLayer(
          (rel_attn): XLNetRelativeAttention(
            (layer_norm): XLNetLayerNorm()
            (dropout): Dropout(p=0.1)
          )
          (ff): XLNetFeedForward(
            (layer_norm): XLNetLayerNorm()
            (layer_1): Linear(in_features=768, out_features=3072, bias=True)
            (layer_2): Linear(in_features=3072, out_features=768, bias=True)
            (dropout): Dropout(p=0.1)
          )
          (dropout): Dropout(p=0.1)
        )
      )
      (dropout): Dropout(p=0.1)
    )
  )
  (decoder): TransformerDecoder(
    (embeddings): Embeddings(
      (make_embedding): Sequential(
        (emb_luts): Elementwise(
          (0): Embedding(32006, 768, padding_idx=1)
        )
        (pe): PositionalEncoding(
          (dropout): Dropout(p=0.1)
        )
      )
      (word_lut): Embedding(32006, 768, padding_idx=1)
    )
    (transformer_layers): ModuleList(
      (0): TransformerDecoderLayer(
        (self_attn): MultiHeadedAttention(
          (linear_keys): Linear(in_features=768, out_features=768, bias=True)
          (linear_values): Linear(in_features=768, out_features=768, bias=True)
          (linear_query): Linear(in_features=768, out_features=768, bias=True)
          (softmax): Softmax()
          (dropout): Dropout(p=0.1)
          (final_linear): Linear(in_features=768, out_features=768, bias=True)
        )
        (context_attn): MultiHeadedAttention(
          (linear_keys): Linear(in_features=768, out_features=768, bias=True)
          (linear_values): Linear(in_features=768, out_features=768, bias=True)
          (linear_query): Linear(in_features=768, out_features=768, bias=True)
          (softmax): Softmax()
          (dropout): Dropout(p=0.1)
          (final_linear): Linear(in_features=768, out_features=768, bias=True)
        )
        (feed_forward): PositionwiseFeedForward(
          (w_1): Linear(in_features=768, out_features=3072, bias=True)
          (w_2): Linear(in_features=3072, out_features=768, bias=True)
          (layer_norm): LayerNorm(torch.Size([768]), eps=1e-06, elementwise_affine=True)
          (dropout_1): Dropout(p=0.1)
          (relu): ReLU()
          (dropout_2): Dropout(p=0.1)
        )
        (layer_norm_1): LayerNorm(torch.Size([768]), eps=1e-06, elementwise_affine=True)
        (layer_norm_2): LayerNorm(torch.Size([768]), eps=1e-06, elementwise_affine=True)
        (drop): Dropout(p=0.1)
      )
      (1): TransformerDecoderLayer(
        (self_attn): MultiHeadedAttention(
          (linear_keys): Linear(in_features=768, out_features=768, bias=True)
          (linear_values): Linear(in_features=768, out_features=768, bias=True)
          (linear_query): Linear(in_features=768, out_features=768, bias=True)
          (softmax): Softmax()
          (dropout): Dropout(p=0.1)
          (final_linear): Linear(in_features=768, out_features=768, bias=True)
        )
        (context_attn): MultiHeadedAttention(
          (linear_keys): Linear(in_features=768, out_features=768, bias=True)
          (linear_values): Linear(in_features=768, out_features=768, bias=True)
          (linear_query): Linear(in_features=768, out_features=768, bias=True)
          (softmax): Softmax()
          (dropout): Dropout(p=0.1)
          (final_linear): Linear(in_features=768, out_features=768, bias=True)
        )
        (feed_forward): PositionwiseFeedForward(
          (w_1): Linear(in_features=768, out_features=3072, bias=True)
          (w_2): Linear(in_features=3072, out_features=768, bias=True)
          (layer_norm): LayerNorm(torch.Size([768]), eps=1e-06, elementwise_affine=True)
          (dropout_1): Dropout(p=0.1)
          (relu): ReLU()
          (dropout_2): Dropout(p=0.1)
        )
        (layer_norm_1): LayerNorm(torch.Size([768]), eps=1e-06, elementwise_affine=True)
        (layer_norm_2): LayerNorm(torch.Size([768]), eps=1e-06, elementwise_affine=True)
        (drop): Dropout(p=0.1)
      )
      (2): TransformerDecoderLayer(
        (self_attn): MultiHeadedAttention(
          (linear_keys): Linear(in_features=768, out_features=768, bias=True)
          (linear_values): Linear(in_features=768, out_features=768, bias=True)
          (linear_query): Linear(in_features=768, out_features=768, bias=True)
          (softmax): Softmax()
          (dropout): Dropout(p=0.1)
          (final_linear): Linear(in_features=768, out_features=768, bias=True)
        )
        (context_attn): MultiHeadedAttention(
          (linear_keys): Linear(in_features=768, out_features=768, bias=True)
          (linear_values): Linear(in_features=768, out_features=768, bias=True)
          (linear_query): Linear(in_features=768, out_features=768, bias=True)
          (softmax): Softmax()
          (dropout): Dropout(p=0.1)
          (final_linear): Linear(in_features=768, out_features=768, bias=True)
        )
        (feed_forward): PositionwiseFeedForward(
          (w_1): Linear(in_features=768, out_features=3072, bias=True)
          (w_2): Linear(in_features=3072, out_features=768, bias=True)
          (layer_norm): LayerNorm(torch.Size([768]), eps=1e-06, elementwise_affine=True)
          (dropout_1): Dropout(p=0.1)
          (relu): ReLU()
          (dropout_2): Dropout(p=0.1)
        )
        (layer_norm_1): LayerNorm(torch.Size([768]), eps=1e-06, elementwise_affine=True)
        (layer_norm_2): LayerNorm(torch.Size([768]), eps=1e-06, elementwise_affine=True)
        (drop): Dropout(p=0.1)
      )
      (3): TransformerDecoderLayer(
        (self_attn): MultiHeadedAttention(
          (linear_keys): Linear(in_features=768, out_features=768, bias=True)
          (linear_values): Linear(in_features=768, out_features=768, bias=True)
          (linear_query): Linear(in_features=768, out_features=768, bias=True)
          (softmax): Softmax()
          (dropout): Dropout(p=0.1)
          (final_linear): Linear(in_features=768, out_features=768, bias=True)
        )
        (context_attn): MultiHeadedAttention(
          (linear_keys): Linear(in_features=768, out_features=768, bias=True)
          (linear_values): Linear(in_features=768, out_features=768, bias=True)
          (linear_query): Linear(in_features=768, out_features=768, bias=True)
          (softmax): Softmax()
          (dropout): Dropout(p=0.1)
          (final_linear): Linear(in_features=768, out_features=768, bias=True)
        )
        (feed_forward): PositionwiseFeedForward(
          (w_1): Linear(in_features=768, out_features=3072, bias=True)
          (w_2): Linear(in_features=3072, out_features=768, bias=True)
          (layer_norm): LayerNorm(torch.Size([768]), eps=1e-06, elementwise_affine=True)
          (dropout_1): Dropout(p=0.1)
          (relu): ReLU()
          (dropout_2): Dropout(p=0.1)
        )
        (layer_norm_1): LayerNorm(torch.Size([768]), eps=1e-06, elementwise_affine=True)
        (layer_norm_2): LayerNorm(torch.Size([768]), eps=1e-06, elementwise_affine=True)
        (drop): Dropout(p=0.1)
      )
    )
    (layer_norm): LayerNorm(torch.Size([768]), eps=1e-06, elementwise_affine=True)
  )
  (generator): CopyGenerator(
    (linear): Linear(in_features=768, out_features=32006, bias=True)
    (linear_copy): Linear(in_features=768, out_features=1, bias=True)
  )
)
[2019-08-22 10:01:13,803 INFO] encoder: 116722944
[2019-08-22 10:01:13,803 INFO] decoder: 87002631
[2019-08-22 10:01:13,803 INFO] * number of parameters: 203725575
[2019-08-22 10:01:13,806 INFO] builing BertAdamW
[2019-08-22 10:01:16,701 INFO] Starting training on GPU: [0]
[2019-08-22 10:01:16,701 INFO] Start training loop and validate every 10000 steps...
…
